pytorch/60-min blitz/cifar_net.pth (torch, 251391 bytes, 10 tensors)

conv1.weight f4 [6, 3, 5, 5]
0.018302515 0.2177798 0.23069674 0.14607543 -0.06869634 0.3917589 0.6177276 0.60367805
0.50096035 0.28087625 0.1631381 0.027663553 -0.047267538 0.046624962 0.043310735 -0.4479802
-0.530006 -0.45614952 -0.35929263 -0.22633426 -0.20238197 -0.09585809 -0.11692292 -0.088202596
-0.20392105 -0.09765317 -0.19906262 0.10220676 -0.091773316 -0.12698238 0.2073368 0.1813659
0.31676218 0.016841082 0.016508458 -0.051890086 -0.09331946 -0.26115957 -0.3817531 -0.1521582
-0.2335897 -0.5601032 -0.5416632 -0.28792837 -0.10542058 0.061567195 0.23612706 0.08185136
-0.0097942725 0.023343658 -0.12038853 -0.17349668 -0.16402689 -0.19446655 -0.019635024 0.1832359
0.1462355 0.23414065 -0.026742032 -0.070637204 -0.016605632 -0.06493362 -0.0052664583 -0.2438798
0.09340732 -0.124810405 -0.25374344 -0.24258122 0.027969828 0.026712019 0.35583612 0.30921456
0.37421203 0.45677534 0.32794464 -0.20622021 -0.18133181 -0.2853794 -0.2788638 -0.14249511
-0.32092282 -0.14602762 -0.06853315 -0.11478775 -0.06945905 -0.055815753 -0.055821218 -0.03182187
0.024623413 -0.13651848 -0.2016742 -0.28458917 -0.3037524 -0.2976188 -0.24402744 -0.053455282
0.08537655 -0.03734029 0.0287812 0.11654945 -0.02079482 -0.18629764 -0.1800372 -0.094889015
-0.121565364 0.072996944 -0.020295722 0.094777 -0.038486518 0.16059768 0.17336188 0.2537307
0.31893846 0.26574627 0.16416204 -0.0021544455 -0.0022788993 0.002440301 -0.09534855 -0.06470794
-0.12572561 -0.09258961 -0.17628816 -0.19561604 -0.14743496 -0.023748126 0.020614836 0.027490972
0.020121431 0.037015673 -0.0022798502 0.1879764 0.14180447 0.10349322 0.09777334 0.34336022
0.33879545 0.48088685 0.3882383 0.41624656 0.05256825 -0.055523295 0.022133652 0.0020019813
0.054565024 -0.0365662 -0.11645345 -0.07260115 -0.07268593 0.15420674 0.057126943 0.08859722
-0.091461204 -0.08679159 0.10593742 -0.037411757 -0.09871266 -0.037262972 -0.012732177 -0.0827376
-0.07559352 -0.15329967 0.045471333 -0.16319993 -0.13494028 -0.08230869 -0.15919176 -0.19540954
-0.12920642 -0.019024827 -0.13789707 -0.08295147 -0.1854447 -0.20962617 -0.11479023 -0.10180129
0.032256927 0.037062906 0.0009308737 -0.18692273 -0.007678695 0.042782046 0.07630408 -0.09539492
-0.14878874 -0.033892218 0.023571124 0.0037774022 -0.13841777 -0.07701913 -0.12717332 0.054645162
-0.011105248 -0.07188431 -0.051863678 -0.08582557 -0.027909216 0.11506387 0.03989921 -0.030442366
0.19583851 0.19150385 0.3077957 0.13798624 -0.044986498 0.16892849 0.2049424 0.15497743
0.09615529 0.14619797 0.1221369 0.27983868 0.21212535 0.2430881 0.06643568 0.15502849
0.24899916 0.31227538 0.20489465 -0.027309008 0.16913153 0.23395291 0.25829905 0.14099938
0.048538372 0.5203574 0.059596844 -0.058817543 0.2368071 0.07912304 0.44611242 -0.29943842
-0.61563814 0.22294112 0.11356327 0.51990384 -0.46002817 -0.5548121 0.35070133 0.23860022
0.006685767 -0.4596792 -0.23463298 0.2392109 0.10064781 -0.052311026 -0.25760135 -0.0094847595
0.21164949 -0.121987104 0.14871527 -0.23948807 -0.53577 -0.1908478 -0.057395563 0.57063127
00000000: 28ef 953c ab01 5f3e c43b 6c3e cc94 153e
00000010: abb0 8cbd 9f94 c83e 6523 1e3f a58a 1a3f
00000020: f03e 003f 03cf 8f3e ad0d 273e ad9e e23c
00000030: 9b9b 41bd d1f9 3e3d 9966 313d a95d e5be
00000040: 79ae 07bf 6e8c e9be 34f5 b7be 2bc4 67be
00000050: 383d 4fbe 3f51 c4bd 4975 efbd 90a3 b4bd
00000060: aed0 50be 63fe c7bd 12d7 4bbe c751 d13d
00000070: a6f3 bbbd ab07 02be 1950 543e fcb7 393e
00000080: a72e a23e 4ff6 893c bf3c 873c b38a 54bd
00000090: 461e bfbd b5b6 85be 2475 c3be 5ccf 1bbe
000000a0: 2332 6fbe ec62 0fbf 71aa 0abf 596b 93be
000000b0: bfe6 d7bd e22d 7c3d 4bcb 713e b0a1 a73d
000000c0: 2878 20bc 333b bf3c 438e f6bd 1da9 31be
000000d0: aaf6 27be 3d22 47be a1d9 a0bc 31a2 3b3e
000000e0: c2be 153e 91c2 6f3e 1b12 dbbc 3daa 90bd
000000f0: 8908 88bc ebfb 84bd 4192 acbb a0bb 79be
00000100: 564c bf3d 999c ffbd a9ea 81be 3667 78be
00000110: fb20 e53c 2ad3 da3c 2730 b63e 5f51 9e3e
00000120: b898 bf3e 75de e93e 5ce8 a73e 642b 53be
00000130: 0caf 39be 401d 92be 3cc7 8ebe 3dea 11be
00000140: ff4f a4be 4488 15be 1c5b 8cbd d715 ebbd
00000150: 8c40 8ebd 0f9f 64bd caa4 64bd a657 02bd
00000160: 0ab7 c93c 80cb 0bbe ae83 4ebe acb5 91be
00000170: 6f85 9bbe 7e61 98be 54e2 79be edf3 5abd
00000180: e7d9 ae3d 22f2 18bd 8dc6 eb3c 7ab1 ee3d
00000190: e659 aabc cfc4 3ebe ac5b 38be 2c55 c2bd
000001a0: 43f7 f8bd 6c7f 953d 3743 a6bc 721a c23d
000001b0: 0aa4 1dbd b873 243e c785 313e fee8 813e
000001c0: e74b a33e e50f 883e 181a 283e 9931 0dbb
000001d0: 9659 15bb 75ed 1f3b 1a46 c3bd 9985 84bd
000001e0: 37be 00be 9f9f bdbd e284 34be 924f 48be
000001f0: 31f9 16be 6e8b c2bc 72e0 a83c bf34 e13c
00000200: b3d5 a43c bf9d 173d 8a69 15bb e37c 403e
00000210: 3135 113e 41f4 d33d 643d c83d e9cc af3e
00000220: 9976 ad3e cd36 f63e 2cc7 c63e 451e d53e
00000230: ce51 573d 656c 63bd a251 b53c ac33 033b
00000240: 937f 5f3d 71c6 15bd 257f eebd e9af 94bd
00000250: 5cdc 94bd 5fe8 1d3e f1fd 693d 7672 b53d
00000260: 0350 bbbd cabf b1bd b8f5 d83d 123d 19bd
00000270: dd29 cabd 0fa1 18bd 9f9a 50bc 5572 a9bd
00000280: c7d0 9abd 97fa 1cbe 2640 3a3d e21d 27be
00000290: c92d 0abe 7591 a8bd 2a03 23be 7019 48be
000002a0: b04e 04be f4d9 9bbc e434 0dbe 76e2 a9bd
000002b0: 37e5 3dbe 3ea8 56be 2417 ebbd 327d d0bd
000002c0: d71f 043d 46cf 173d e005 743a ac68 3fbe
000002d0: 909d fbbb 3a3c 2f3d 5045 9c3d 695e c3bd
000002e0: 135c 18be 91d2 0abd 3b18 c13c 4b8e 773b
000002f0: 63bd 0dbe 35bc 9dbd b939 02be 9bd3 5f3d
00000300: c9f2 35bc 1538 93bd 026f 54bd 51c5 afbd
00000310: dea1 e4bc 9ba6 eb3d 5b6d 233d 4562 f9bc
00000320: e489 483e 9619 443e 6697 9d3e 444c 0d3e
00000330: c343 38bd 97fb 2c3e 6cdc 513e 67b2 1e3e
00000340: 11ed c43d ecb4 153e e922 fa3d 0447 8f3e
00000350: 6337 593e 16ec 783e 6e0f 883d cabf 1e3e
00000360: a3f9 7e3e 8fe2 9f3e e7cf 513e 24b7 dfbc
00000370: d130 2d3e 5a91 6f3e c63f 843e 2462 103e
00000380: 2cd0 463d 2436 053f d21b 743d aaea 70bd
00000390: 8f7d 723e 430b a23d d968 e43e fe4f 99be
000003a0: 769a 1dbf ad4a 643e dc93 e83d 6b18 053f
000003b0: d088 ebbe 2a08 0ebf 208f b33e 9e53 743e
000003c0: 4714 db3b 125b ebbe a143 70be b4f3 743e
000003d0: 7020 ce3d 1644 56bd 53e4 83be f765 1bbc
000003e0: a5ba 583e 60d4 f9bd d148 183e 5c3c 75be
000003f0: 3928 09bf 9b6d 43be 9c17 6bbd e414 123f

conv1.bias f4 [6]
-0.41977394 0.037752215 0.32221267 -0.2408054 -0.2755705 0.12162811
00000000: 9cec d6be 11a2 1a3d 0ff9 a43e b195 76be
00000010: 9417 8dbe 2918 f93d

conv2.weight f4 [16, 6, 5, 5]
-0.07901974 -0.11864924 -0.06555544 0.10086399 0.11228172 -0.10711454 0.055752907 -0.08692732
-0.0053360537 0.026111228 -0.05336429 0.08448234 -0.08116041 -0.13840072 -0.018068075 -0.011090522
0.013815745 -0.08612496 -0.18749112 -0.06351166 -0.02464277 -0.015787562 -0.016501116 -0.04327024
-0.0136198895 0.10173869 -0.0054874257 -0.13446645 -0.1827634 -0.12942192 0.27792156 0.12358349
-0.100909404 -0.24695773 -0.25923312 0.25459874 0.21660629 -0.013495363 -0.24448517 -0.23745783
0.24840185 0.20410939 0.009275153 -0.11969461 -0.24799544 0.22958513 0.102182016 -0.050434496
-0.19656795 -0.16808194 0.065864645 0.034169912 -0.17774266 -0.3287438 -0.16458942 0.2505853
0.15466014 -0.024456576 -0.24219158 -0.23491384 0.26481786 0.21649805 0.0242152 -0.2284499
-0.21828592 0.19924423 0.10475817 -0.027611915 -0.14569719 -0.12305067 0.1955402 0.021781398
-0.011480655 -0.17708465 -0.14426544 -0.21842906 -0.22198369 0.049746003 0.08714342 0.039924722
-0.21608649 -0.2419111 -0.034146354 0.113697894 -0.03800726 -0.21597767 -0.16994578 -0.04108575
0.16585317 0.06497641 -0.19792096 -0.07218016 -0.083525114 0.15333658 0.086745985 -0.21109316
0.021410609 0.08364176 0.049801327 0.19235444 -0.157882 -0.14211802 0.06042045 0.22082643
0.04943845 -0.080700874 -0.062029436 -0.08095623 0.12670715 0.13298142 -0.062425457 -0.10384878
0.025321057 0.11390973 0.08619499 -0.046075646 0.011050384 -0.023706678 -0.023010591 -0.058170807
-0.09983874 0.025547441 -0.024236174 0.053634852 -0.08488986 0.105522625 -0.019626796 -0.016758526
-0.021724656 -0.06325562 0.1282601 0.074775666 -0.113399014 -0.14870338 -0.046537958 0.04102
0.12009367 0.05763196 -0.15123452 -0.011395825 -0.02454136 0.10262633 -0.03859054 0.00773484
-0.04375967 -0.045213584 -0.06320832 -0.07525846 -0.089635685 -0.1594314 0.06252821 -0.04475879
-0.09049317 0.04269066 0.1992334 -0.020697227 0.09577054 0.015176497 0.0072065485 0.22957692
-0.058524724 -0.09707415 -0.11521829 -0.073935464 -0.06326799 -0.075993754 -0.08123711 -0.08268077
0.047457907 0.09434472 0.09148461 -0.044327643 -0.0062173954 -0.03939583 0.013209955 -0.012720611
0.048291184 -0.062999584 -0.038453933 -0.068046495 -0.07407608 -0.07814777 -0.094163716 0.004094832
-0.10798647 -0.08208567 -0.040483866 -0.13434635 -0.052503135 -0.07835166 -0.12265594 -0.00703069
-0.010507417 -0.090124376 -0.044424284 -0.06515649 -0.089089535 -0.0020564834 -0.071706034 -0.14487831
-0.15009657 -0.12096264 -0.14541194 -0.10015328 -0.13177155 -0.19509527 -0.027104376 -0.02998965
-0.10948344 -0.0869359 -0.17066991 -0.10313492 0.035424057 -0.087167375 -0.017555201 -0.18251434
-0.009741325 -0.11005263 -0.08797947 -0.086339094 -0.23790158 -0.16927356 -0.09546993 -0.039119948
-0.24007803 -0.0017225731 0.1343889 -0.048867345 0.22916828 -0.19527172 -0.10815429 -0.118865795
0.13196093 -0.015195185 0.0074795326 0.013255913 -0.050794777 0.22737679 -0.19400616 0.321807
0.021776777 0.18929526 -0.06967666 0.08480399 0.0019294837 0.08108511 0.019010166 0.16357194
-0.008664278 0.08751542 -0.038391557 0.016449135 -0.046030927 0.036347006 0.22438127 -0.11799257
00000000: 1ad5 a1bd 5ffe f2bd ee41 86bd c891 ce3d
00000010: f5f3 e53d de5e dbbd 295d 643d f306 b2bd
00000020: 10da aebb 37e7 d53c 8494 5abd 1405 ad3d
00000030: 6e37 a6bd ebb8 0dbe 8003 94bc 05b5 35bc
00000040: 6f5b 623c 4862 b0bd acfd 3fbe 6712 82bd
00000050: a2df c9bc eb54 81bc 592d 87bc 233c 31bd
00000060: f525 5fbc 605c d03d ddcf b3bb 93b1 09be
00000070: 5426 3bbe 2e87 04be bc4b 8e3e 5719 fd3d
00000080: 97a9 cebd 7de2 7cbe 34ba 84be c45a 823e
00000090: 0ace 5d3e a81b 5dbc 525a 7abe 2528 73be
000000a0: 0e5d 7e3e 0d02 513e d0f6 173c 7322 f5bd
000000b0: 84f2 7dbe 5d18 6b3e ce44 d13d 6794 4ebd
000000c0: 1c49 49be ac1d 2cbe 0be4 863d c0f5 0b3d
000000d0: 2c02 36be 1b51 a8be 218a 28be b74c 803e
000000e0: 3a5f 1e3e 2859 c8bc 1201 78be 418d 70be
000000f0: 3596 873e aab1 5d3e f55e c63c c5ee 69be
00000100: 5886 5fbe ae06 4c3e 748b d63d 6232 e2bc
00000110: a531 15be fd01 fcbd b13b 483e e76e b23c
00000120: 5b19 3cbc ae55 35be 52ba 13be deab 5fbe
00000130: b14f 63be 77c2 4b3d 4078 b23d 1b88 233d
00000140: c745 5dbe 8bb7 77be 0cdd 0bbd 71da e83d
00000150: 80ad 1bbd 4029 5dbe 4406 2ebe 8849 28bd
00000160: 6ad5 293e 5a12 853d cbab 4abe 31d3 93bd
00000170: 370f abbd 4404 1d3e e1a7 b13d ce28 58be
00000180: 4d65 af3c 5f4c ab3d 7afc 4b3d 90f8 443e
00000190: d2ab 21be 6387 11be 6f7b 773d 5320 623e
000001a0: f97f 4a3d 8046 a5bd 9412 7ebd 61cc a5bd
000001b0: 85bf 013e 482c 083e d6b1 7fbd abae d4bd
000001c0: 1b6e cf3c 8149 e93d 0087 b03d d1b9 3cbd
000001d0: ab0c 353c 8234 c2bc b580 bcbc 8344 6ebd
000001e0: 4178 ccbd de48 d13c f18a c6bc 38b0 5b3d
000001f0: bcda adbd 3f1c d83d 60c8 a0bc 2d49 89bc
00000200: e8f7 b1bc 2a8c 81bd 9e56 033e fc23 993d
00000210: be3d e8bd b345 18be 969e 3ebd 9604 283d
00000220: acf3 f53d 7d0f 6c3d 39dd 1abe 8eb5 3abc
00000230: f60a c9bc c12d d23d 1d11 1ebd 8a74 fd3b
00000240: 573d 33bd e131 39bd 5d73 81bd 1c21 9abd
00000250: ea92 b7bd fc41 23be ca0e 803d fe54 37bd
00000260: 7c54 b9bd 67dc 2e3d d703 4c3e 3b8d a9bc
00000270: 5823 c43d d8a6 783c e924 ec3b 3616 6b3e
00000280: 9fb7 6fbd d0ce c6bd 91f7 ebbd 7a6b 97bd
00000290: a692 81bd 9da2 9bbd a45f a6bd 8954 a9bd
000002a0: 3963 423d ce37 c13d 495c bb3d e790 35bd
000002b0: 4bbb cbbb 865d 21bd 916e 583c 1c6a 50bc
000002c0: facc 453d ed05 81bd df81 1dbd f65b 8bbd
000002d0: 33b5 97bd f00b a0bd e8d8 c0bd f12d 863b
000002e0: 0328 ddbd 881c a8bd 69d2 25bd 1792 09be
000002f0: 870d 57bd d676 a0bd 0a33 fbbd b461 e6bb
00000300: 4d27 2cbc 2193 b8bd 3df6 35bd c470 85bd
00000310: 9374 b6bd 11c6 06bb 9dda 92bd fb5a 14be
00000320: eab2 19be 43bb f7bd dee6 14be 2a1d cdbd
00000330: 1fef 06be 0ec7 47be ff09 debc dbac f5bc
00000340: db38 e0bd 730b b2bd 18c4 2ebe 6738 d3bd
00000350: d118 113d cf84 b2bd edcf 8fbc 0ae5 3abe
00000360: 149a 1fbc 4663 e1bd 952e b4bd 8dd2 b0bd
00000370: 799c 73be 0c56 2dbe bd85 c3bd 3d3c 20bd
00000380: 04d7 75be f6c7 e1ba 3e9d 093e 2029 48bd
00000390: 17ab 6a3e 4ff5 47be ff7f ddbd e96f f3bd
000003a0: c420 073e 3af5 78bc de16 f53b 542f 593c
000003b0: 2f0e 50bd 76d5 683e 8da9 46be e3c3 a43e
000003c0: 3665 b23c 9ed6 413e a3b2 8ebd b7ad ad3d
000003d0: bbe6 fc3a f30f a63d 35bb 9b3c 677f 273e
000003e0: 9ef4 0dbc 493b b33d 7740 1dbd 56c0 863c
000003f0: ed8a 3cbd 99e0 143d 34c4 653e 17a6 f1bd

conv2.bias f4 [16]
0.3563632 1.2219534 -0.27565616 0.01974485 -0.15232131 -0.26345822 -0.6408422 -0.6998591
0.031523325 0.69860464 -0.15153827 -0.26358956 0.04555019 -0.24455549 0.26864892 0.018662985
00000000: 3d75 b63e f868 9c3f ce22 8dbe f4bf a13c
00000010: 1efa 1bbe ffe3 86be 3c0e 24bf f729 33bf
00000020: 9a1e 013d c1d7 323f d92c 1bbe 36f5 86be
00000030: d692 3a3d c16c 7abe 5a8c 893e 1ee3 983c

fc1.weight f4 [120, 400]
-0.09979719 -0.070166916 -0.026718935 -0.0816761 -0.140464 -0.062155448 -0.03152107 -0.008101492
-0.07429926 0.02253833 -0.034459706 -0.021814423 -0.012660884 -0.023105828 0.037911993 -0.026005274
-0.039266143 -0.09148287 0.043413687 -0.011547336 0.045895133 -0.0068381145 -0.038911875 -0.048930205
-0.093224764 -0.06126393 0.023440847 0.036045644 0.034556102 0.004925234 -0.044070873 -0.016168483
-0.0654288 0.030572234 -0.011630462 0.01724785 0.022789828 -0.047291905 -0.036926158 0.04576878
0.029342625 -0.010798486 -0.028090471 0.023078434 0.03465722 -0.022875115 0.03396915 0.007851757
0.00029886136 -0.0075884694 -0.1370061 -0.16612458 -0.11855733 -0.10305283 -0.10067285 -0.062126193
-0.081211 -0.10148627 -0.10685944 -0.02310863 0.023364695 0.07421822 -0.037175376 0.039259113
0.052243166 0.091105215 0.04343694 0.053178765 0.07300982 0.049563367 0.04131024 -0.022835976
0.0011329503 0.06625756 0.09081051 0.005451095 0.007620712 0.0021079865 -0.039350137 -0.0880419
0.063920185 0.033228874 -0.0017544127 0.06352214 -0.051988658 0.052297775 0.0093453 0.034900554
0.09181497 0.00057869067 0.011916603 0.022897499 0.060800593 0.0729116 0.04800461 0.022315737
0.012116753 0.042436242 -0.016841384 0.038877137 -0.068225764 -0.07408404 -0.10108692 -0.11033448
-0.14000222 -0.06554842 0.026878648 -0.04528017 0.0017355887 -0.07201238 0.04225689 -0.0021475034
0.041977033 0.028177613 -0.01849249 -0.043846197 0.027337316 0.034470525 0.007305412 0.029135345
-0.013193183 -0.02087818 -0.011766141 0.028825792 -0.056787845 0.024057727 -0.027073588 -0.09555309
-0.061203536 -0.003748039 0.074706584 -0.07620947 -0.054395977 -0.012121231 0.014693406 -0.025023181
-0.04121612 0.03308449 0.02575002 0.02308514 0.014608925 0.004410932 0.04867463 -0.008580288
-0.052399985 0.014736144 -0.006407557 -0.01668895 -0.041891173 -0.021029463 -0.056923907 -0.022425245
-0.034315582 -0.010820272 0.008744692 -0.039718 0.011076097 0.050054852 0.061946876 0.05593071
0.061543036 -0.021752384 -0.002645542 -0.024051135 0.0545091 0.015889158 0.0068551353 0.04207954
-0.02246825 -0.0065086833 -0.09731008 -0.08121403 0.016349709 -0.08849426 -0.08412654 -0.028864563
-0.025013711 -0.046617504 0.00027448148 0.010021159 0.07361171 0.061056003 0.04311457 0.054258347
0.08077913 0.09425678 0.0124266455 -0.0096210195 0.03956035 0.007946396 0.020209385 -0.019489395
-0.03927276 0.011840732 0.0350061 -0.112703465 -0.030806627 -0.065485775 -0.09236507 -0.06961972
-0.046423696 0.03036897 0.028427768 0.03901019 0.043073066 -0.044792853 0.04462015 -0.01811949
0.0045412146 -0.021420058 -0.0025679148 0.029483821 -0.010442001 0.005020824 -0.0070418403 -0.0039406405
-0.020523645 0.0121678375 -0.013375126 0.014338913 -0.019017646 -0.03725818 0.03289094 -0.026795816
0.013666653 0.13459952 0.04238267 -0.014841691 0.028137965 0.0066008205 0.120743275 0.07089412
0.05708493 0.0037267949 -0.023182303 0.05953593 0.037139613 0.02100589 -0.008329715 0.01464464
-0.024066903 -0.01774712 -0.032853365 -0.017581267 0.06022695 0.08961733 0.039222825 0.030421307
0.05313581 0.059445236 -0.07357532 -0.0654367 -0.10230221 -0.033640984 -0.04517008 -0.021932771
00000000: 7862 ccbd acb3 8fbd abe1 dabc cd45 a7bd
00000010: cbd5 0fbe b696 7ebd 3d1c 01bd 1fbc 04bc
00000020: 362a 98bd 4ea2 b83c 9f25 0dbd 29b4 b2bc
00000030: 996f 4fbc 6f48 bdbc 9b49 1b3d 0309 d5bc
00000040: 89d5 20bd 5f5b bbbd 8dd2 313d 0a31 3dbc
00000050: 89fc 3b3d 4312 e0bb 0f62 1fbd 0a6b 48bd
00000060: a0ec bebd e3ef 7abd 0507 c03c 99a4 133d
00000070: b38a 0d3d db63 a13b a983 34bd c473 84bc
00000080: 89ff 85bd 9f72 fa3c b18d 3ebc 5d4b 8d3c
00000090: bcb1 ba3c 28b5 41bd e23f 17bd 0b78 3b3d
000000a0: f25f f03c 22ec 30bc fd1d e6bc fc0e bd3c
000000b0: bbf4 0d3d 9864 bbbc 3c23 0b3d a8a4 003c
000000c0: 7eb0 9c39 b2a8 f8bb 544b 0cbe 901c 2abe
000000d0: 2fce f2bd 5d0d d3bd 912d cebd 0978 7ebd
000000e0: f451 a6bd 09d8 cfbd 1fd9 dabd 4f4e bdbc
000000f0: 5167 bf3c b9ff 973d 3545 18bd 2ace 203d
00000100: eefc 553d 5f95 ba3d efea 313d fad1 593d
00000110: 2c86 953d f502 4b3d ed34 293d 8312 bbbc
00000120: 817f 943a 0bb2 873d dcfa b93d 199f b23b
00000130: 2ab7 f93b 2526 0a3b 9c2d 21bd 504f b4bd
00000140: 96e8 823d 001b 083d 52f4 e5ba e517 823d
00000150: 0ff2 54bd 3136 563d 071d 193c e2f3 0e3d
00000160: 7d09 bc3d 46b3 173a db3d 433c 8993 bb3c
00000170: 0b0a 793d ad52 953d 7ba0 443d 7ecf b63c
00000180: 5885 463c a0d1 2d3d f1f6 89bc a23d 1f3d
00000190: f3b9 8bbd 60b9 97bd a906 cfbd 0bf7 e1bd
000001a0: be5c 0fbe 403e 86bd 9c30 dc3c b377 39bd
000001b0: b17c e33a 3a7b 93bd 9015 2d3d 21bd 0cbb
000001c0: 1cf0 2b3d bdd4 e63c 907d 97bc 1298 33bd
000001d0: 82f2 df3c f730 0d3d 3d62 ef3b 3fad ee3c
000001e0: 3828 58bc b808 abbc c6c6 40bc 1124 ec3c
000001f0: 5f9a 68bd b614 c53c 6ec9 ddbc 57b1 c3bd
00000200: 8fb0 7abd a9a1 75bb c4ff 983d b613 9cbd
00000210: 51ce 5ebd 2198 46bc 9dbc 703c 6afd ccbc
00000220: 3cd2 28bd 9a83 073d b5f1 d23c 0c1d bd3c
00000230: 465a 6f3c 9489 903b 0c5f 473d 5694 0cbc
00000240: 5ea1 56bd de6f 713c 7cf6 d1bb 44b7 88bc
00000250: 1496 2bbd fb45 acbc 0b29 69bd 26b5 b7bc
00000260: 7f8e 0cbd 8347 31bc e645 0f3c 57af 22bd
00000270: 8578 353c 5106 4d3d 02bc 7d3d 9a17 653d
00000280: 8d14 7c3d 0e32 b2bc d460 2dbb e306 c5bc
00000290: ef44 5f3d fb29 823c 0ba1 e03b 995b 2c3d
000002a0: 560f b8bc cb46 d5bb 824a c7bd 8b53 a6bd
000002b0: d3ef 853c 7b3c b5bd 894a acbd 6075 ecbc
000002c0: 8ee9 ccbc fff1 3ebd 48e8 8f39 ca2f 243c
000002d0: bcc1 963d dc15 7a3d e798 303d 003e 5e3d
000002e0: 876f a53d b309 c13d 2199 4b3c 7ba1 1dbc
000002f0: 090a 223d 9a31 023c 278e a53c 39a8 9fbc
00000300: 79dc 20bd a1ff 413c 8e62 0f3d 13d1 e6bd
00000310: 2e5e fcbc 681d 86bd e629 bdbd c994 8ebd
00000320: c626 3ebd 59c8 f83c 5ae1 e83c 26c9 1f3d
00000330: 626d 303d b678 37bd 9ec3 363d 536f 94bc
00000340: 78ce 943b 1e79 afbc 764a 28bb 0e88 f13c
00000350: ed14 2bbc b985 a43b 3dbf e6bb 7d20 81bb
00000360: 3421 a8bc 9c5b 473c 5823 5bbc c3ed 6a3c
00000370: e5ca 9bbc 099c 18bd a6b8 063d e682 dbbc
00000380: 19ea 5f3c 75d4 093e 7399 2d3d 902a 73bc
00000390: 9781 e63c b24b d83b 4048 f73d f030 913d
000003a0: e3d1 693d 3e3d 743b d0e8 bdbc f3db 733d
000003b0: b51f 183d 8b14 ac3c 5b79 08bc 12f0 6f3c
000003c0: f427 c5bc 6862 91bc 4091 06bd 9706 90bc
000003d0: 89b0 763d 4a89 b73d 1da8 203d 1b36 f93c
000003e0: efa4 593d d97c 733d a8ae 96bd ad03 86bd
000003f0: d283 d1bd 21cb 09bd 4304 39bd 5bac b3bc

fc1.bias f4 [120]
0.13012326 0.022383634 0.032368336 0.039984338 0.06976806 0.06983698 0.13048598 0.012247022
0.24088028 -0.014272507 -0.03745383 -0.044413432 0.023933474 0.09030661 -0.055487 0.009232417
0.003199857 0.019977076 -0.07518488 -0.05928451 -0.036808193 0.0028985457 0.09634399 0.0017172353
0.13014685 -0.011372506 0.15185949 0.16634668 -0.0169094 0.1342238 0.055446904 0.05847818
-0.00091784215 -0.018319853 -0.07538152 -0.09522114 -0.0024822757 0.10010578 -0.03945596 0.07411919
0.21285126 0.1095898 0.0006683452 0.09904367 0.066966385 0.20347407 0.04912456 -0.07767239
-0.006665286 -0.004508998 -0.0071020992 -0.003765066 0.14156356 -0.058457192 -0.08497631 0.12985481
-0.026567182 0.056536876 -0.03406213 -0.0032924209 0.0985194 0.02759054 0.035681486 -0.09917563
0.15785725 -0.002551948 -0.033439647 -0.03626871 0.025972597 -0.0054029445 -0.026831388 0.098720245
0.011213706 -0.051617663 -0.011915816 0.012997148 0.0030481315 0.10586317 0.050741725 -0.047128987
-0.010886402 0.05818633 0.023195576 -0.015694082 -0.14337295 0.037792027 -0.101126224 -0.017024085
0.13230953 -0.05225374 0.15058061 -0.09189156 -0.08221531 -0.041922204 0.0113230515 -0.031726632
0.071244955 0.043202247 0.104824126 -0.0077061323 0.05025003 0.0616575 0.06807934 0.004236418
-0.032001548 0.02498993 0.0057461737 0.12015382 -0.05583864 -0.0245559 -0.03718432 -0.06795983
-0.004526166 0.095462136 -0.03316191 -0.023604132 -0.05738692 0.011925681 0.0049070055 0.04896911
00000000: 083f 053e e25d b73c a994 043d 9ec6 233d
00000010: 8fe2 8e3d b106 8f3d 1e9e 053e bca7 483c
00000020: 52a9 763e 3cd7 69bc 3069 19bd dcea 35bd
00000030: 2210 c43c acf2 b83d 5646 63bd 9043 173c
00000040: b1b4 513b f7a6 a33c 88fa 99bd 50d4 72bd
00000050: 30c4 16bd 87f5 3d3b ff4f c53d db14 e13a
00000060: 3745 053e bf53 3abc 0e81 1b3e c956 2a3e
00000070: 9585 8abc f771 093e 4b1c 633d d186 6f3d
00000080: 589b 70ba 8413 96bc a061 9abd 4d03 c3bd
00000090: adad 22bb 4204 cd3d 939c 21bd cdcb 973d
000000a0: aef5 593e 9e70 e03d e333 2f3a 68d7 ca3d
000000b0: ac25 893d 825b 503e d636 493d b412 9fbd
000000c0: 7968 dabb 37c0 93bb bab8 e8bb 53bf 76bb
000000d0: 0af6 103e cf70 6fbd 0f08 aebd a9f8 043e
000000e0: 6ba3 d9bc 3693 673d bb84 0bbd a8c5 57bb
000000f0: 8ac4 c93d 8e05 e23c c026 123d 981c cbbd
00000100: 55a5 213e 953e 27bb 03f8 08bd 808e 14bd
00000110: 7cc4 d43c 2f0b b1bb 80cd dbbc d72d ca3d
00000120: b1b9 373c 0b6d 53bd 8e3a 43bc fdf1 543c
00000130: 29c3 473b cace d83d 8ed6 4f3d 530a 41bd
00000140: e15c 32bc ca54 6e3d a604 be3c e090 80bc
00000150: 5cd0 12be d0cb 1a3d 441b cfbd 1876 8bbc
00000160: 267c 073e 0508 56bd ce31 1a3e a431 bcbd
00000170: 8060 a8bd 9eb6 2bbd 5284 393c c9f3 01bd
00000180: e0e8 913d d7f4 303d 08ae d63d b983 fcbb
00000190: fad2 4d3d 938c 7c3d 2e6d 8b3d a6d1 8a3b
000001a0: 0e14 03bd afb7 cc3c 664a bc3b 3513 f63d
000001b0: 0fb7 64bd 7429 c9bc 964e 18bd 862e 8bbd
000001c0: 3b50 94bb a781 c33d c8d4 07bd 745d c1bc
000001d0: 8c0e 6bbd ee63 433c f2ca a03b d593 483d

fc2.weight f4 [84, 120]
-0.07880739 -0.067682184 -0.057869036 -0.058067225 -0.041952655 -0.03859352 0.07163166 -0.08286939
-0.110829316 -0.049733676 0.038924407 0.02821832 0.0005213223 -0.10836679 -0.03366167 -0.0841382
-0.08630752 0.15848315 0.044361122 0.008799065 0.10410324 0.102249965 -0.05512791 0.00035612518
-0.12891363 0.017733825 -0.11182364 0.09288268 0.017078333 0.048928745 0.04932156 -0.10103165
0.030620523 -0.09477891 -0.03656604 0.013746425 -0.053681478 -0.04495423 0.05243411 0.039418817
0.11311055 -0.046063058 0.074006446 -0.047743257 -0.09933349 -0.017871903 -0.04076096 0.07222305
-0.042173762 -0.10498431 0.0050490033 -0.094362915 0.11347081 -0.14712846 -0.05703351 -0.043405894
0.030128341 -0.036780875 0.01812963 0.06376835 -0.09100884 0.05421689 -0.05936492 0.17313077
0.023988595 0.01431232 -0.03166184 0.03774419 -0.10814296 -0.01847814 0.05631523 -0.080617115
0.034919098 -0.034946073 0.025530675 -0.15406848 0.09188468 -0.010498479 -0.037377097 0.034820836
-0.07249382 -0.03467376 -0.06599128 -0.057621606 -0.09097808 -0.052123558 -0.046097584 -0.023396444
-0.025252663 -0.08835594 -0.036416847 0.107341886 0.037205413 0.010783536 -0.05584362 -0.017962666
-0.044944387 -0.11445999 -0.108158626 -0.1475652 0.07019436 0.014792423 0.0089933425 -0.08935863
0.0181443 -0.009437781 -0.034685723 -0.12923945 0.043715075 -0.057753537 0.0068831653 -0.019342788
0.034764215 0.031069333 0.09449823 0.02583873 0.114333935 0.08661561 0.042761087 -0.06283788
0.065464795 0.012224412 0.026521686 -0.010113424 -0.018546417 0.013375895 0.07457831 -0.040854003
-0.0897568 -0.018327923 -0.045174584 -0.00888906 -0.016779928 -0.080645084 -0.051462986 -0.010262171
-0.01847871 -0.03406411 -0.02497863 0.09083149 0.07660113 -0.022661833 -0.0072307335 0.08040944
0.007144036 0.038296238 0.02426683 -0.062182292 0.07130765 -0.06937996 0.05111962 0.0016454991
-0.044765428 -0.023704777 0.04521676 -0.10025279 0.09382667 0.078576565 -0.0370984 0.025821207
-0.014447656 -0.03338292 -0.074111134 -0.069087274 0.048527814 0.03584466 0.054348215 -0.051689934
-0.010343446 -0.012985062 -0.08864977 0.059252333 -0.047975432 0.002690268 0.0103991 -0.07052726
0.06401472 -0.013517879 0.064376146 0.0655122 0.046432577 0.019693654 -0.0075084316 -0.090521984
0.040638737 0.017879741 -0.00054025557 0.036418337 0.044535518 -0.013863028 -0.07995151 0.07000965
-0.026811155 -0.05771165 -0.08303482 -0.08280305 -0.04313138 0.02921714 -0.04673497 0.028457526
0.022215782 0.08468767 0.08554585 0.053939868 0.013859537 -0.06319257 0.050241422 -0.06459974
-0.08806514 0.028451623 -0.060591944 -0.086431995 0.023284264 0.0727895 0.016910559 0.031593017
-0.025791371 -0.082280196 0.049249988 0.09447536 -0.07394834 0.062021054 -0.042794935 0.025205374
0.065424085 -0.07082102 -0.012372465 0.07022211 -0.0494788 -0.052755043 0.025016403 -0.070152745
0.03828125 0.06586252 0.03786582 0.0350685 0.06952857 0.049341384 -0.008979719 0.11070411
0.07106423 -0.025283841 0.036316514 -0.08099242 0.03757576 -0.0007516926 0.047588456 -0.08785535
-0.019804852 -0.028485604 0.059381545 -0.073649235 -0.005995994 0.03534389 -0.07087854 0.10588231
00000000: c565 a1bd f59c 8abd 1508 6dbd e6d7 6dbd
00000010: 8cd6 2bbd 3d14 1ebd 9fb3 923d 6db7 a9bd
00000020: 7bfa e2bd 8ab5 4bbd 336f 1f3d 1b2a e73c
00000030: 59a9 083a 68ef ddbd d2e0 09bd a650 acbd
00000040: ffc1 b0bd 6849 223e 02b4 353d f429 103c
00000050: 1434 d53d 6e68 d13d cecd 61bd 50b6 ba39
00000060: ef01 04be 8746 913c cb03 e5bd 4639 be3d
00000070: dce7 8b3c 8269 483d 6705 4a3d afe9 cebd
00000080: e4d7 fa3c 721b c2bd 46c6 15bd af38 613c
00000090: 1ce1 5bbd ed21 38bd 26c5 563d a075 213d
000000a0: 81a6 e73d 9eac 3cbd b190 973d 6f8e 43bd
000000b0: 5b6f cbbd 1968 92bc f7f4 26bd aee9 933d
000000c0: 65be 2cbd 0402 d7bd 1c72 a53b 5841 c1bd
000000d0: 6263 e83d d8a8 16be f89b 69bd 61ca 31bd
000000e0: b6cf f63c 8ba7 16bd 9784 943c fb98 823d
000000f0: d862 babd 8812 5e3d a128 73bd 3149 313e
00000100: bb83 c43c 397e 6a3c d8af 01bd a799 1a3d
00000110: 0e7a ddbd 785f 97bc ccaa 663d 961a a5bd
00000120: 5407 0f3d 9d23 0fbd b525 d13c 21c4 1dbe
00000130: 092e bc3d d001 2cbc ba18 19bd 4ba0 0e3d
00000140: a477 94bd 1306 0ebd 7026 87bd a204 6cbd
00000150: b752 babd 837f 55bd d2d0 3cbd e6a9 bfbc
00000160: acde cebc f6f3 b4bd d529 15bd 10d6 db3d
00000170: b464 183d 6ead 303c 48bc 64bd 7126 93bc
00000180: 9b17 38bd 006a eabd 4582 ddbd 551b 17be
00000190: 10c2 8f3d eb5b 723c d058 133c a801 b7bd
000001a0: 5ba3 943c eca0 1abc 9e12 0ebd 5957 04be
000001b0: 940e 333d f98e 6cbd 2d8c e13b c474 9ebc
000001c0: ec64 0e3d 1d85 fe3c 4a88 c13d bfab d33c
000001d0: e927 ea3d 8663 b13d 4026 2f3d 25b1 80bd
000001e0: 6812 863d e648 483c 0244 d93c c6b2 25bc
000001f0: a8ee 97bc 9226 5b3c 83bc 983d 8756 27bd
00000200: 6ad2 b7bd 7124 96bc fc08 39bd 6ba3 11bc
00000210: 0f76 89bc 4029 a5bd daca 52bd aa22 28bc
00000220: aa60 97bc cf86 0bbd fc9f ccbc dc05 ba3d
00000230: 0ee1 9c3d 4fa5 b9bc caef ecbb b4ad a43d
00000240: 8418 ea3b 84dc 1c3d 3bcb c63c dcb2 7ebd
00000250: bf09 923d 1517 8ebd cf62 513d caad d73a
00000260: f45b 37bd 8530 c2bc 3635 393d 5651 cdbd
00000270: 3228 c03d c0ec a03d 7ef4 17bd ff86 d33c
00000280: ddb5 6cbc 87bc 08bd 94c7 97bd a17d 8dbd
00000290: 1ac5 463d dad1 123d 3c9c 5e3d d3b8 53bd
000002a0: 8f77 29bc 4cbf 54bc 038e b5bd 93b2 723d
000002b0: e381 44bd 354f 303b fd60 2a3c 9970 90bd
000002c0: 261a 833d 187a 5dbc a4d7 833d 432b 863d
000002d0: 1630 3e3d 9654 a13c 4a09 f6bb 9763 b9bd
000002e0: ce74 263d 8978 923c f09f 0dba 652b 153d
000002f0: e06a 363d c121 63bc 9ebd a3bd 3861 8f3d
00000300: 11a3 dbbc 0d63 6cbd 290e aabd a594 a9bd
00000310: 88aa 30bd c958 ef3c 2b6d 3fbd c21f e93c
00000320: dffd b53c bb70 ad3d aa32 af3d 0df0 5c3d
00000330: 1d13 633c 1b6b 81bd f3c9 4d3d de4c 84bd
00000340: 7f5b b4bd 6113 e93c 422f 78bd 4203 b1bd
00000350: a4be be3c a912 953d 0388 8a3c ae67 013d
00000360: 6d48 d3bc 8582 a8bd 5bba 493d 4c7c c13d
00000370: 3a72 97bd ca09 7e3d be49 2fbd 807b ce3c
00000380: 10fd 853d 9c0a 91bd e1b5 4abc 9cd0 8f3d
00000390: 48aa 4abd ac15 58bd 33ef cc3c 3eac 8fbd
000003a0: cdcc 1c3d eee2 863d 3119 1b3d fda3 0f3d
000003b0: ff64 8e3d 311a 4a3d ac1f 13bc d6b8 e23d
000003c0: 1f8a 913d 0f20 cfbc a0c0 143d 5bdf a5bd
000003d0: 0ae9 193d 3d0d 45ba 1dec 423d 81ed b3bd
000003e0: c93d a2bc a45a e9bc 103a 733d 69d5 96bd
000003f0: 0b7a c4bb c1c4 103d c528 91bd d3d8 d83d

fc2.bias f4 [84]
-0.02812425 -0.07715831 -0.058292672 0.01833651 0.1659559 0.014590522 0.055478185 -0.10758084
-0.068280086 -0.10457361 0.14089926 0.03156571 -0.09792541 0.2967992 -0.11791032 -0.040370833
-0.08032998 0.007726303 0.016663883 0.1943473 0.11109626 0.217702 0.058128867 0.03663491
0.12946449 0.07563715 -0.02101511 0.23419182 -0.014060224 0.13324732 -0.046159755 -0.0011067509
0.19044937 0.16374098 -0.047526803 0.101249166 0.1638471 0.2322937 -0.001121118 -0.06928703
-0.078984044 -0.03469206 0.035113994 0.12229113 0.009460208 0.038179815 0.4616905 0.03434675
-0.014043232 0.5970371 0.01853298 -0.06808083 -0.061166372 0.09800631 0.076264985 0.038279217
-0.07038212 0.13434759 0.12008079 0.17798041 -0.06205241 -0.13847978 -0.047963433 0.19114974
-0.038569506 -0.06640075 0.07773054 0.068557285 0.012348979 0.12388231 -0.059795137 -0.06831767
-0.03713623 0.12530395 0.13063464 -0.023774326 0.17150946 0.20128508 0.2839371 -0.060975634
0.06816428 0.12167429 -0.065942205 -0.057881556
00000000: d464 e6bc 2d05 9ebd 4cc4 6ebd 7336 963c
00000010: 58f0 293e 160d 6f3c 183d 633d 5853 dcbd
00000020: 6ed6 8bbd b02a d6bd e547 103e 0c4b 013d
00000030: 1e8d c8bd 11f6 973e f77a f1bd e35b 25bd
00000040: 0b84 a4bd ed2c fd3b b282 883c fb02 473e
00000050: 7086 e33d 46ed 5e3e 8918 6e3d 7d0e 163d
00000060: 5792 043e a6e7 9a3d e127 acbc fbcf 6f3e
00000070: db5c 66bc fc71 083e 0312 3dbd 6610 91ba
00000080: 2905 433e b7ab 273e 77ab 42bd b95b cf3d
00000090: 89c7 273e 66de 6d3e 7af2 92ba 5ce6 8dbd
000000a0: 63c2 a1bd 4319 0ebd b1d3 0f3d c673 fa3d
000000b0: fdfe 1a3c 7062 1c3d b262 ec3e 2daf 0c3d
000000c0: 9615 66bc 6cd7 183f 7ad2 973c f66d 8bbd
000000d0: 9789 7abd 88b7 c83d d130 9c3d abca 1c3d
000000e0: 8024 90bd 6a92 093e ebec f53d 7f40 363e
000000f0: ab2a 7ebd a5cd 0dbe 4e75 44bd c2bc 433e
00000100: 0ffb 1dbd 1efd 87bd 3031 9f3d c367 8c3d
00000110: 5f53 4a3c 02b6 fd3d bfeb 74bd 22ea 8bbd
00000120: 291c 18bd ae4f 003e 16c5 053e 60c2 c2bc
00000130: 2da0 2f3e ad1d 4e3e 3460 913e 96c1 79bd
00000140: b799 8b3d 5f30 f93d b50c 87bd 3615 6dbd

fc3.weight f4 [10, 84]
-0.038895458 -0.07553716 0.052585643 0.12312397 -0.08057392 -0.045593597 0.005877049 0.06797416
0.10451292 0.14955057 0.14548989 -0.0571625 0.03581748 -0.09204997 -0.08709269 -0.026891325
-0.10787306 0.05981414 0.10967651 -0.08308372 0.01082837 -0.24242395 0.14700188 0.20997158
0.2985611 0.0921014 -0.110298805 0.34620085 0.12560786 0.08434297 0.04650531 0.20352565
0.17036444 -0.18710025 0.1512188 0.093976155 -0.009441182 -0.056740467 0.22678979 -0.010075005
0.09894414 -0.0040478227 -0.1479297 0.12970881 0.09406177 0.06745085 0.117016435 0.11446017
0.11746193 -0.44441947 0.100302875 -0.122851685 0.034401108 -0.02860376 -0.13369942 -0.1601079
0.094969966 -0.0960334 -0.05958374 -0.06452859 0.05383865 0.11706885 -0.043992586 0.1310885
-0.04262555 -0.02833276 0.07877995 0.003415056 0.017203351 0.1561147 -0.07045099 -0.03247449
-0.10393488 0.059604447 -0.12817793 0.25234574 -0.10810075 -0.14209053 -0.19058114 -0.018217715
0.118530065 -0.12154983 0.1986696 -0.08458748 -0.17375423 -0.020836305 -0.119058706 0.03994105
-0.02043657 0.04997001 -0.06927474 0.23603395 -0.0039473656 -0.01659943 -0.31783035 0.023654027
-0.16726935 -0.08011105 0.028409647 0.034866516 0.24568725 0.32892135 -0.010442237 -0.17662786
-0.041442677 -0.14649191 0.12214635 -0.07207985 -0.026414901 0.0012078749 0.23147012 0.055396143
-0.09559123 0.0021410375 0.005867306 -0.18279001 -0.010260472 -0.12272155 -0.11439505 0.06937062
-0.08641243 -0.12516701 -0.104101405 0.08966702 0.3317757 -0.0048524076 -0.20679542 0.29699755
-0.09210554 -0.054118875 -0.33249536 -0.14734212 -0.04417292 -0.27549312 0.07132197 -0.024824824
-0.008150648 -0.00041150287 -0.13525829 0.088574685 -0.0012445292 -0.16564356 -0.19190985 -0.12958387
-0.10437035 0.052883934 0.028018512 -0.05787765 0.03968776 -0.1814025 -0.04000321 0.14960119
0.054579943 -0.0074123973 -0.017128097 0.10243516 0.12464801 0.24966858 -0.16791597 -0.1355447
-0.16462146 -0.25116822 -0.02101906 -0.02280354 0.05877658 0.27746257 0.13425413 0.06909107
0.015806546 0.06455475 0.023763362 -0.048448317 0.053437356 0.04605174 -0.0893386 -0.14241809
0.058618575 -0.026562497 0.029512722 0.02187214 -0.1287609 0.036877614 -0.1595007 0.083803
-0.0074915946 -0.1634937 0.06816824 0.053353216 0.05132929 0.17165756 -0.09174208 0.099774435
0.14444616 -0.02960607 -0.13530058 0.24639837 -0.05333684 -0.048730258 0.0111854095 0.0063603926
0.0148448255 -0.003682043 -0.029837642 0.026978062 0.36216316 -0.18576305 -0.010062276 -0.13120742
-0.05498692 -0.08115632 0.015341077 -0.1906394 -0.022662291 -0.061477546 0.3073769 0.0146492785
-0.03843757 -0.056190196 -0.04096512 0.16484973 0.18421105 0.0047271433 -0.10224058 -0.09020471
-0.022415008 0.3070536 0.050092716 -0.09239548 -0.062462155 -0.008456518 0.0062438766 -0.17222257
-0.023906656 0.31040218 -0.08658557 -0.13273895 0.03750456 0.21226832 0.100260615 0.15127055
-0.05758202 -0.08755718 0.0762207 0.04740574 0.06533732 0.040538877 0.15958233 -0.16264829
0.07320992 0.08260913 -0.066904485 -0.09535243 -0.04729522 -0.019414932 -0.009106134 -0.17067523
00000000: d850 1fbd 3ab3 9abd 0b64 573d 6c28 fc3d
00000010: f003 a5bd 5ac0 3abd 4394 c03b 0936 8b3d
00000020: df0a d63d c923 193e 4dfb 143e 3a23 6abd
00000030: 5ab5 123d b284 bcbd a75d b2bd 324b dcbc
00000040: 8dec dcbd acff 743d 149e e03d cc27 aabd
00000050: 7a69 313c fc3d 78be a987 163e ca02 573e
00000060: 00dd 983e a99f bc3d 57e4 e1bd 3d41 b13e
00000070: 599f 003e 02bc ac3d 5a7c 3e3d 0769 503e
00000080: 0474 2e3e 3597 3fbe 1ad9 1a3e 9276 c03d
00000090: 30af 1abc b168 68bd 953b 683e a211 25bc
000000a0: 3aa3 ca3d 99a3 84bb e27a 17be 63d2 043e
000000b0: 75a3 c03d ac23 8a3d 50a6 ef3d 186a ea3d
000000c0: e18f f03d f38a e3be 986b cd3d aa99 fbbd
000000d0: 2de8 0c3d 6f52 eabc 80e8 08be 53f3 23be
000000e0: 9d7f c23d 29ad c4bd 140e 74bd 9127 84bd
000000f0: eb85 5c3d cbc1 ef3d 9231 34bd 103c 063e
00000100: 2198 2ebd 1b1a e8bc 6257 a13d 22cf 5f3b
00000110: 0bee 8c3c 88dc 1f3e 9c48 90bd f903 05bd
00000120: cfdb d4bd cb23 743d 1341 03be 7633 813e
00000130: ed63 ddbd 2e80 11be b427 43be 513d 95bc
00000140: e4bf f23d 1eef f8bd 0b70 4b3e 333c adbd
00000150: a1ec 31be e6b0 aabc 0dd5 f3bd 3a99 233d
00000160: 986a a7bc 5aad 4c3d eadf 8dbd e2b2 713e
00000170: e758 81bb 87fb 87bc a9ba a2be 17c6 c13c
00000180: a848 2bbe 4311 a4bd 59bb e83c 31d0 0e3d
00000190: 7095 7b3e 6168 a83e eb15 2bbc efdd 34be
000001a0: ccbf 29bd fa01 16be de27 fa3d 9a9e 93bd
000001b0: 1064 d8bc 8e51 9e3a 8106 6d3e 11e7 623d
000001c0: 56c5 c3bd a650 0c3b 8842 c03b 4e2d 3bbe
000001d0: 8a1b 28bc 7055 fbbd f447 eabd 2f12 8e3d
000001e0: 00f9 b0bd c82b 00be 1e33 d5bd 58a3 b73d
000001f0: 81de a93e f200 9fbb 2ec2 53be 1010 983e
00000200: d4a1 bcbd c1ab 5dbd d53c aabe dae0 16be
00000210: aaee 34bd 6f0d 8dbe 4111 923d 6e5d cbbc
00000220: 4c8a 05bc fbbe d7b9 2681 0abe a566 b53d
00000230: 781f a3ba 779e 29be 0484 44be a2b1 04be
00000240: 1fc0 d5bd d39c 583d 1487 e53c 1d11 6dbd
00000250: a28f 223d 94c1 39be 68da 23bd 0e31 193e
00000260: 388f 5f3d b2e3 f2bb 3950 8cbc 86c9 d13d
00000270: 7547 ff3d 1fa9 7f3e 2af2 2bbe 3bcc 0abe
00000280: 8792 28be 1f99 80be 2a30 acbc 7dce babc
00000290: b6bf 703d 930f 8e3e ea79 093e 9e7f 8d3d
000002a0: bb7c 813c 4835 843d 62ab c23c be71 46bd
000002b0: 21e1 5a3d c0a0 3c3d 28f7 b6bd 0cd6 11be
000002c0: 081a 703d 9899 d9bc aac4 f13c 342d b33c
000002d0: e6d9 03be fb0c 173d 2754 23be e8a0 ab3d
000002e0: 0d7c f5bb e46a 27be ca9b 8b3d e788 5a3d
000002f0: a93e 523d 00c7 2f3e 46e3 bbbd 8a56 cc3d
00000300: b2e9 133e 6e88 f2bc 3c8c 0abe db4f 7c3e
00000310: bb77 5abd 6199 47bd 0243 373c d76a d03b
00000320: b637 733c 6e4e 71bb 126e f4bc 1901 dd3c
00000330: 736d b93e ab38 3ebe 3fdc 24bc 3d5b 06be
00000340: f739 61bd 4935 a6bd 2459 7b3c fa36 43be
00000350: 45a6 b9bc e1cf 7bbd 8160 9d3e 8703 703c
00000360: b770 1dbd b127 66bd 0bcb 27bd 5ece 283e
00000370: d2a1 3c3e 27e6 9a3b 8263 d1bd 3fbd b8bd
00000380: ae9f b7bc 2136 9d3e 052e 4d3d d739 bdbd
00000390: 51d8 7fbd 358d 0abc 6f99 cc3b 1d5b 30be
000003a0: e4d7 c3bc 09ed 9e3e c653 b1bd b8ec 07be
000003b0: 629e 193d de5c 593e 7055 cd3d abe6 1a3e
000003c0: 20db 6bbd 2e51 b3bd 9919 9c3d 852c 423d
000003d0: 93cf 853d 180c 263d 8d69 233e 468d 26be
000003e0: 15ef 953d fa2e a93d 3805 89bd 2348 c3bd
000003f0: a2b8 41bd 100c 9fbc e531 15bc 7dc5 2ebe

fc3.bias f4 [10]
-0.23855549 -0.47824982 0.14120245 0.27771735 0.50549453 -0.19653533 0.32039008 -0.24355398
0.3070677 -0.3741193
00000000: e447 74be 29dd f4be 6097 103e f830 8e3e
00000010: 1768 013f 8f40 49be 2b0a a43e 3766 79be
00000020: fa37 9d3e 918c bfbe
